codon_transformer.pt (torch, 100506 bytes, 120 tensors)

embed.embedding.weight f4 [22, 16]
-0.34078747 -0.7594439 1.1822029 -0.6495728 1.6247295 -0.018984364 0.86921823 1.0790454
-0.34134948 -1.3984782 -1.0130299 -1.0491881 0.72910553 0.0770167 -0.15726158 -1.3102671
2.4183707 -0.12072508 -0.93930864 -1.4558417 -0.5763165 -0.16289401 -1.577605 -0.26363155
-0.43470103 -1.7718949 0.36571923 0.40428913 0.78396064 0.11458458 0.15025724 0.783831
-0.112361655 -3.628531 -0.008056442 1.1767025 -1.2772437 -0.7923597 0.74848855 -0.9653576
0.26528028 -1.2856894 0.31174824 -0.8533769 0.8247142 -1.4254456 -0.25236136 -0.83164465
0.19587694 -0.84121203 -0.16661994 0.41005448 -0.1915013 0.50207835 1.9750029 0.25122833
0.046362825 0.5009488 -0.0902632 -0.23662849 0.13203153 0.03377928 0.5904526 -0.19827318
0.0184587 -1.7174723 -0.9808373 1.732075 0.06188068 -1.0570974 0.15837044 -0.68784314
-1.7977687 -1.2965351 -0.1679768 0.62089175 -0.6325153 -0.13990311 0.59191394 2.5637262
1.5304533 -1.6482021 -0.7328113 0.044201422 -0.5253457 0.42318967 -1.0420574 0.74276865
2.9972417 -0.9930833 -0.2799126 0.95689064 -0.9519354 -1.5438514 -0.9011945 -0.27050734
0.5187601 0.4028013 0.29905075 0.45190012 -0.24351837 -0.04249923 0.37028885 0.3258058
1.4576308 0.21800369 -0.83512294 -0.32816997 1.8066868 2.5027027 1.1409723 -0.2487867
1.3138782 0.7322686 -0.8475965 1.451034 -0.042143013 1.9676318 -0.4861984 -1.6844264
-1.1822404 0.10954905 -0.4867382 0.51597714 -0.469405 -0.44155508 -0.10523679 -2.3255541
-0.3346621 0.686108 -0.20074788 -1.3429943 -0.558938 1.076361 -0.5651999 0.23375851
0.15089975 -0.40810287 -1.4914821 0.06633296 -0.5805177 -1.0960596 0.35687986 -0.6313829
0.081077784 0.397793 -0.82529783 0.3867577 -0.43519303 1.162021 1.981778 0.05425971
0.3822439 1.0793303 0.5974438 0.95458007 0.2952632 -0.5786529 1.9720931 0.5046765
-0.7875422 -0.7366317 -0.8674798 0.3656165 0.40669978 -0.24387504 -0.39897907 0.47123614
2.2418947 -0.8216435 -0.88721275 0.20444785 0.7871366 0.0653267 -0.121521324 -0.31595165
-1.1956052 0.5778291 -1.4922211 1.034941 -2.479212 1.1089613 0.007640267 1.3128014
-1.4745603 2.123623 -0.18898572 1.456151 -0.3697715 -1.1226572 -1.4041524 1.5785542
-0.17011872 0.4150121 0.47168067 0.8065552 0.06666354 -0.27731383 0.25963026 1.0786383
-1.3812768 -0.9757845 -1.8568774 -0.65307444 0.3332991 -1.5131156 0.16296645 -0.19440308
0.49208155 -1.0997756 2.0524023 1.1708595 0.33987567 1.7741406 -0.48056433 -1.1167829
1.298725 0.31266838 1.3342123 1.4625603 0.20673874 -0.19311151 -1.1595275 -0.86947596
-1.2277763 -1.3820586 -0.09291705 -0.24219956 0.86880714 -0.21011917 0.20228326 -1.4139812
-0.3238899 -0.22422308 0.25918958 -0.38408366 1.3321977 0.57153744 0.49572882 1.017366
0.8104285 0.10079987 -0.16325355 1.1863372 2.5276234 0.3634613 0.6792732 -0.9957428
-1.6823226 0.09954358 1.7713898 -1.2858441 -0.8387586 -0.28656164 -1.1100851 -0.76052207
00000000: b27b aebe ea6a 42bf 6d52 973f 674a 26bf
00000010: 23f7 cf3f 1985 9bbc 1685 5e3f 291e 8a3f
00000020: 5cc5 aebe 5501 b3bf f7aa 81bf cc4b 86bf
00000030: a9a6 3a3f eeba 9d3d 2e09 21be d5b6 a7bf
00000040: 96c6 1a40 b63e f7bd 8876 70bf 0559 babf
00000050: 7a89 13bf b0cd 26be f6ee c9bf b7fa 86be
00000060: 2291 debe 74cd e2bf 8d3f bb3e fcfe ce3e
00000070: a5b1 483f 52ab ea3d 09dd 193e 26a9 483f
00000080: de1d e6bd da39 68c0 2bff 03bc 309e 963f
00000090: b97c a3bf 16d8 4abf f29c 3f3f ad21 77bf
000000a0: d1d2 873e 7891 a4bf 779d 9f3e e976 5abf
000000b0: 7820 533f 0075 b6bf 8235 81be aae6 54bf
000000c0: f793 483e ac59 57bf 6b9e 2abe a9f2 d13e
000000d0: eb18 44be 3588 003f e5cc fc3f 00a1 803e
000000e0: f2e6 3d3d 2e3e 003f eadb b8bd bd4e 72be
000000f0: 4633 073e 245c 0a3d e727 173f 2008 4bbe
00000100: b336 973c 22d6 dbbf 2718 7bbf a2b4 dd3f
00000110: 9976 7d3d f84e 87bf dc2b 223e 7d16 30bf
00000120: 491d e6bf ddf4 a5bf 1c02 2cbe c3f2 1e3f
00000130: 86ec 21bf c342 0fbe ac87 173f 1714 2440
00000140: e5e5 c33f 49f8 d2bf 8599 3bbf 8d0c 353d
00000150: 0e7d 06bf 51ac d83e 2362 85bf 1626 3e3f
00000160: cfd2 3f40 b53a 7ebf b450 8fbe c9f6 743f
00000170: 0ab2 73bf ec9c c5bf afb4 66bf f07f 8abe
00000180: 76cd 043f f93b ce3e 2e1d 993e 745f e73e
00000190: e15c 79be ac13 2ebd 8096 bd3e 05d0 a63e
000001a0: a593 ba3f 5c3c 5f3e 9eca 55bf e505 a8be
000001b0: 8341 e73f 482c 2040 610b 923f f1c1 7ebe
000001c0: 292d a83f f475 3b3f 16fc 58bf 7bbb b93f
000001d0: 279e 2cbd 5cdb fb3f ffee f8be 499b d7bf
000001e0: a753 97bf 415b e03d c035 f9be 1417 043f
000001f0: da55 f0be 8213 e2be 6386 d7bd e1d5 14c0
00000200: d558 abbe c6a4 2f3f da90 4dbe 3de7 abbf
00000210: 9016 0fbf 32c6 893f f1b0 10bf 645e 6f3e
00000220: 7785 1a3e dcf2 d0be e3e8 bebf 93d9 873d
00000230: cf9c 14bf ae4b 8cbf f5b8 b63e 4fa2 21bf
00000240: 1c0c a63d 86ab cb3e b846 53bf 1b05 c63e
00000250: 9fd1 debe 1bbd 943f e7aa fd3f 6e3f 5e3d
00000260: 79b5 c33e 7f27 8a3f 14f2 183f 5c5f 743f
00000270: bd2c 973e 9922 14bf 8c6d fc3f 7b32 013f
00000280: 5e9c 49bf e593 3cbf 2813 5ebf 1632 bb3e
00000290: f43a d03e 61ba 79be fc46 ccbe dd45 f13e
000002a0: 347b 0f40 3a57 52bf 6020 63bf c75a 513e
000002b0: c981 493f 01ca 853d 2ce0 f8bd 6ac4 a1be
000002c0: 9709 99bf 9cec 133f 1a01 bfbf f278 843f
000002d0: 69ab 1ec0 72f2 8d3f 345b fa3b e009 a83f
000002e0: 64be bcbf 70e9 0740 7985 41be 2863 ba3f
000002f0: b152 bdbe 3bb3 8fbf 44bb b3bf 100e ca3f
00000300: 9a33 2ebe 777c d43e 2180 f13e 677a 4e3f
00000310: e586 883d 14fc 8dbe 42ee 843e d210 8a3f
00000320: aecd b0bf 03cd 79bf 29ae edbf e32f 27bf
00000330: 2ea6 aa3e c6ad c1bf ade0 263e 9a11 47be
00000340: 1df2 fb3e 72c5 8cbf 8f5a 0340 b9de 953f
00000350: 2f04 ae3e 0a17 e33f 870c f6be bef2 8ebf
00000360: 9f3c a63f 1216 a03e 78c7 aa3f 2d35 bb3f
00000370: 52b3 533e 06bf 45be 666b 94bf fa95 5ebf
00000380: c627 9dbf 4ce7 b0bf 4b4b bebd 2903 78be
00000390: 256a 5e3f 7b29 57be 5823 4f3e 56fd b4bf
000003a0: e6d4 a5be bc9a 65be 7fb4 843e 9da6 c4be
000003b0: 7485 aa3f 4750 123f 2bd0 fd3e 0d39 823f
000003c0: 3e78 4f3f 2a70 ce3d f02b 27be e6d9 973f
000003d0: 95c4 2140 9917 ba3e d9e4 2d3f 00e9 7ebf
000003e0: 5956 d7bf 81dd cb3d e7bc e23f 8a96 a4bf
000003f0: e2b8 56bf 35b8 92be 4517 8ebf 93b1 42bf

pos_enc.pe f4 [1, 250, 16]
0.0 1.0 0.0 1.0 0.0 1.0 0.0 1.0
0.0 1.0 0.0 1.0 0.0 1.0 0.0 1.0
0.84147096 0.54030234 0.3109836 0.9504153 0.099833414 0.9950042 0.031617504 0.99950004
0.009999833 0.99995 0.0031622713 0.999995 0.0009999998 0.9999995 0.0003162278 0.99999994
0.9092974 -0.41614684 0.5911271 0.8065784 0.19866931 0.9800666 0.063203394 0.9980007
0.019998666 0.9998 0.006324511 0.99998003 0.0019999985 0.99999803 0.0006324555 0.9999998
0.14112 -0.9899925 0.8126489 0.58275366 0.2955202 0.9553365 0.094726086 0.99550337
0.0299955 0.99955004 0.009486687 0.999955 0.0029999954 0.9999955 0.00094868324 0.9999996
-0.7568025 -0.6536436 0.95358074 0.30113748 0.38941833 0.921061 0.12615407 0.99201065
0.039989334 0.9992001 0.01264877 0.99992 0.003999989 0.999992 0.0012649108 0.9999992
-0.9589243 0.2836622 0.99994653 -0.010342338 0.47942552 0.87758255 0.15745588 0.987526
0.049979165 0.99875027 0.015810724 0.999875 0.004999979 0.99998754 0.0015811382 0.99999875
-0.2794155 0.96017027 0.9471482 -0.3207964 0.5646424 0.8253356 0.18860027 0.98205394
0.059964005 0.99820054 0.018972522 0.99982 0.0059999637 0.999982 0.0018973656 0.9999982
0.6569866 0.75390226 0.8004216 -0.5994375 0.6442176 0.7648422 0.2195561 0.9755999
0.06994285 0.997551 0.022134129 0.999755 0.006999942 0.9999755 0.0022135926 0.99999756
0.98935825 -0.14550003 0.5743178 -0.8186324 0.7173561 0.6967068 0.25029233 0.96817034
0.07991469 0.9968017 0.025295515 0.99968004 0.007999914 0.999968 0.0025298195 0.9999968
0.4121185 -0.91113025 0.29125923 -0.9566442 0.78332686 0.62161 0.28077832 0.95977265
0.089878544 0.9959527 0.028456647 0.99959505 0.008999879 0.9999595 0.0028460461 0.99999595
-0.5440211 -0.8390715 -0.02068357 -0.9997861 0.84147096 0.54030234 0.31098357 0.9504153
0.099833414 0.9950042 0.031617496 0.99950004 0.009999833 0.99995 0.0031622725 0.999995
-0.9999902 0.004425698 -0.33057496 -0.94377977 0.89120734 0.4535962 0.34087786 0.9401076
0.1097783 0.9939561 0.03477803 0.9993951 0.010999777 0.9999395 0.0034784987 0.999994
-0.53657293 0.84385395 -0.6076834 -0.7941793 0.9320391 0.36235783 0.3704313 0.9288599
0.119712204 0.99280864 0.03793821 0.9992801 0.011999711 0.999928 0.0037947244 0.9999928
0.42016703 0.9074468 -0.82452846 -0.5658205 0.9635582 0.26749888 0.3996143 0.9166834
0.12963414 0.9915619 0.041098017 0.9991551 0.012999633 0.9999155 0.0041109496 0.99999154
0.9906074 0.13673721 -0.9596054 -0.28134948 0.98544973 0.16996728 0.42839777 0.90359026
0.13954312 0.990216 0.044257414 0.99902016 0.013999541 0.999902 0.0044271746 0.9999902
0.65028787 -0.7596879 -0.9995187 0.031022351 0.997495 0.07073732 0.45675287 0.8895936
0.14943813 0.9887711 0.047416367 0.9988752 0.014999436 0.9998875 0.004743399 0.99998873
00000000: 0000 0000 0000 803f 0000 0000 0000 803f
00000010: 0000 0000 0000 803f 0000 0000 0000 803f
00000020: 0000 0000 0000 803f 0000 0000 0000 803f
00000030: 0000 0000 0000 803f 0000 0000 0000 803f
00000040: a46a 573f 4151 0a3f 3e39 9f3e 6b4e 733f
00000050: 7675 cc3d 98b8 7e3f 5b81 013d 3cdf 7f3f
00000060: 57d6 233c b9fc 7f3f 1c3e 4f3b acff 7f3f
00000070: 6d12 833a f8ff 7f3f 60cb a539 ffff 7f3f
00000080: b7c7 683f 3311 d5be 1b54 173f ec7b 4e3f
00000090: f86f 4b3e a5e5 7a3f c870 813d f97c 7f3f
000000a0: 3ed4 a33c e5f2 7f3f d83d cf3b b1fe 7f3f
000000b0: 6812 033b dfff 7f3f 5fcb 253a fdff 7f3f
000000c0: c381 103e 2670 7dbf c209 503f 582f 153f
000000d0: 6c4e 973e ef90 743f c0ff c13d 4fd9 7e3f
000000e0: 1fb9 f53c 83e2 7f3f 0d6e 1b3c 0dfd 7f3f
000000f0: 929b 443b b5ff 7f3f 0eb1 783a f9ff 7f3f
00000100: cfbd 41bf 3055 27bf de1d 743f b12e 9a3e
00000110: d761 c73e a7ca 6b3f 882e 013e 69f4 7d3f
00000120: dbcb 233d 94cb 7f3f c93c 4f3c c2fa 7f3f
00000130: 5712 833b 7aff 7f3f 5dcb a53a f3ff 7f3f
00000140: 107c 75bf 2c3c 913e 7ffc 7f3f e972 29bc
00000150: 4377 f53e 40a9 603f 1d3c 213e 81ce 7c3f
00000160: f4b6 4c3d 19ae 7f3f 7e85 813c cff7 7f3f
00000170: ddd6 a33b 2fff 7f3f 323e cf3a ebff 7f3f
00000180: 8c0f 8fbe b8cd 753f 4e78 723f 6d3f a4be
00000190: 688c 103f 3249 533f 6e20 413e e367 7b3f
000001a0: d19c 753d 128a 7f3f 436c 9b3c 34f4 7f3f
000001b0: 589b c43b d2fe 7f3f 06b1 f83a e2ff 7f3f
000001c0: 4630 283f bdff 403f 6ee8 4c3f bc74 19bf
000001d0: 72eb 243f b3cc 433f 50d3 603e eac0 793f
000001e0: 323e 8f3d 815f 7f3f a252 b53c f2ef 7f3f
000001f0: c55f e53b 65fe 7f3f ec11 113b d7ff 7f3f
00000200: 9546 7d3f f6fd 14be 7e06 133f e591 51bf
00000210: a6a4 373f 605b 323f 5126 803e 03da 773f
00000220: 50aa a33d 652e 7f3f 8a38 cf3c 08eb 7f3f
00000230: 1212 033c e7fd 7f3f 54cb 253b caff 7f3f
00000240: 3201 d33e d53f 69bf ee1f 953e a2e6 74bf
00000250: 1c88 483f d521 1f3f 2dc2 8f3e a9b3 753f
00000260: 3e12 b83d c2f6 7e3f ea1d e93c 76e5 7f3f
00000270: 3a74 133c 59fd 7f3f bb84 3a3b bcff 7f3f
00000280: f844 0bbf 64cd 56bf 9770 a9bc fbf1 7fbf
00000290: a46a 573f 4151 0a3f 3d39 9f3e 6b4e 733f
000002a0: 7675 cc3d 98b8 7e3f 5981 013d 3cdf 7f3f
000002b0: 57d6 233c b9fc 7f3f 213e 4f3b acff 7f3f
000002c0: 5cff 7fbf 7205 913b 1f41 a9be 8d9b 71bf
000002d0: 2a26 643f c33d e83e 8b87 ae3e e4aa 703f
000002e0: 72d3 e03d e873 7e3f 6873 0e3d 5bd8 7f3f
000002f0: 6938 343c 09fc 7f3f 86f7 633b 9bff 7f3f
00000300: d85c 09bf d006 583f 2491 1bbf 564f 4bbf
00000310: 1d9a 6e3f f786 b93e 2ca9 bd3e c3c9 6d3f
00000320: ac2b f53d b528 7e3f 1965 1b3d d2d0 7f3f
00000330: 709a 443c 48fb 7f3f e9b0 783b 87ff 7f3f
00000340: 2220 d73e 6f4e 683f 4c14 53bf 9dd9 10bf
00000350: c0ab 763f 9df5 883e 3f9a cc3e c3ab 6a3f
00000360: d0be 043e 00d7 7d3f 6556 283d a1c8 7f3f
00000370: 6afc 543c 76fa 7f3f 25b5 863b 72ff 7f3f
00000380: 7298 7d3f d704 0c3e b3a8 75bf 0a0d 90be
00000390: 6f46 7c3f e70b 2e3e f456 db3e b151 673f
000003a0: 64e4 0e3e cc7e 7d3f 4347 353d c9bf 7f3f
000003b0: 555e 653c 94f9 7f3f d511 913b 5cff 7f3f
000003c0: 4479 263f e87a 42bf 75e0 7fbf 9622 fe3c
000003d0: d55b 7f3f bade 903d 83db e93e 68bc 633f
000003e0: 4f06 193e 1a20 7d3f aa37 423d 49b6 7f3f
000003f0: 32c0 753c a1f8 7f3f 846e 9b3b 43ff 7f3f

layers.0.attn_heads.0.key.weight f4 [8, 16]
0.11814011 0.08158684 -0.111294664 0.018992847 0.12596183 -0.266553 -0.14158598 0.052551858
0.3016063 -0.3284229 0.13614708 0.38863 -0.15083882 -0.096507 0.23437482 0.15208344
-0.052222375 0.072600536 0.32961643 -0.09506592 0.41954416 0.09521061 -0.0053976467 -0.08472204
-0.16896307 0.09174027 -0.24305178 0.1461904 -0.14099652 -0.13001096 -0.014191048 -0.1890989
0.15380122 0.1100379 -0.09389547 0.10069475 0.068656206 -0.1529359 0.2473993 -0.10920394
-0.04877181 -0.09966344 -0.3077104 -0.35052663 0.13823006 0.15404978 0.34105033 0.15031318
-0.090814054 0.030229786 -0.124150895 -0.100992255 -0.16064928 -0.24052404 -0.20273082 0.06312167
-0.10930374 -0.40941334 0.32819998 0.33323914 0.12282539 -0.21106184 0.04695262 0.11331629
0.03981042 0.018842913 -0.38623673 -0.13075171 -0.030119328 -0.2818896 -0.19765803 0.05037967
0.002941962 -0.36129144 0.13524677 -0.0011396013 -0.13254504 0.1261748 0.1947323 -0.06094901
0.16180453 -0.066801846 -0.031456497 0.06747446 -0.22564726 0.09247099 0.13215765 -0.16692343
0.25437108 -0.3445074 0.38703254 -0.054026455 -0.27837795 0.100671224 -0.079427004 0.2563186
0.09903951 0.004720344 0.12194639 -0.196207 -0.025914785 0.21539316 -0.14224665 0.0745619
-0.12626773 0.044146206 0.40442893 0.23024653 -0.15285914 -0.17064188 -0.19371322 0.04279292
0.19757834 -0.1475349 -0.06553975 0.11026603 -0.20160212 0.020871764 -0.06877608 0.034040164
-0.13357642 -0.32832357 0.41228116 0.02674846 -0.15896228 0.21460865 -0.029572519 -0.18834569
00000000: 71f3 f13d 0017 a73d 75ee e3bd e396 9b3c
00000010: 23fc 003e a379 88be eafb 10be 9e40 573d
00000020: 246c 9a3e 0c27 a8be 246a 0b3e 83fa c63e
00000030: 7e75 1abe 76a5 c5bd f4ff 6f3e c3bb 1b3e
00000040: 21e7 55bd 97af 943d 7cc3 a83e ecb1 c2bd
00000050: 7ece d63e c8fd c23d bede b0bb c082 adbd
00000060: a804 2dbe 53e2 bb3d 91e2 78be f0b2 153e
00000070: 6461 10be 9821 05be 9281 68bc 24a3 41be
00000080: 117e 1d3e 8d5b e13d 454c c0bd 0d39 ce3d
00000090: a09b 8c3d 3b9b 1cbe 3e56 7d3e 51a6 dfbd
000000a0: f3c4 47bd 581c ccbd 388c 9dbe 3a78 b3be
000000b0: 2e8c 0d3e 3abf 1d3e 269e ae3e b3eb 193e
000000c0: b8fc b9bd 75a4 f73c d342 febd 07d5 cebd
000000d0: 3f81 24be ef4b 76be ab98 4fbe ef45 813d
000000e0: a4da dfbd a09e d1be d409 a83e 529e aa3e
000000f0: e18b fb3d 9820 58be 6451 403d 5f12 e83d
00000100: 4010 233d 745c 9a3c d2c0 c5be c7e3 05be
00000110: cfbc f6bc d553 90be de66 4abe ea5a 4e3d
00000120: efcd 403b 31fb b8be 217e 0a3e ad5e 95ba
00000130: e3b9 07be f733 013e e767 473e aba5 79bd
00000140: 16b0 253e 68cf 88bd 87d8 00bd 0d30 8a3d
00000150: 1310 67be 6e61 bd3d 5654 073e faed 2abe
00000160: ed3c 823e 4663 b0be 2129 c63e d84a 5dbd
00000170: 8e87 8ebe b72c ce3d a0aa a2bd 313c 833e
00000180: 3ad5 ca3d 1ead 9a3b 07bf f93d 7dea 48be
00000190: 3e4b d4bc 0690 5c3e 1ba9 11be e9b3 983d
000001a0: 544c 01be a7d2 343d 4f11 cf3e bfc5 6b3e
000001b0: 1b87 1cbe bfbc 2ebe c25c 46be a147 2f3d
000001c0: fa51 4a3e 6413 17be b439 86bd 28d3 e13d
000001d0: c970 4ebe 43fb aa3c 79da 8cbd b36d 0b3d
000001e0: 42c8 08be 071a a8be 8416 d33e 961f db3c
000001f0: 02c7 22be 5fc2 5b3e 1142 f2bc b1dd 40be

layers.0.attn_heads.0.key.bias f4 [8]
0.1977818 -0.10048071 -0.13622852 -0.022078097 -0.08019833 -0.070493124 0.006892632 0.14216389
00000000: 5087 4a3e d5c8 cdbd 7d7f 0bbe 20dd b4bc
00000010: 063f a4bd b35e 90bd 97db e13b 6993 113e

layers.0.attn_heads.0.query.weight f4 [8, 16]
0.26355004 -0.078871295 -0.047830906 0.015780794 0.051550455 0.026052697 0.3690221 -0.027244126
-0.11920362 -0.05851466 -0.1546125 -0.042378217 -0.10382161 0.22034138 0.0653039 0.08283718
0.16857369 0.14545114 0.12749271 -0.30797368 -0.26773724 -0.25308475 -0.115483314 0.00500377
-0.011695905 0.09791852 -0.09587052 -0.009047923 -0.13555105 -0.1483436 0.39501444 -0.01345779
0.093788885 0.26721042 0.13343692 0.07688586 0.33049163 -0.20782733 -0.18827423 0.19761181
0.10555121 -0.18388075 0.107083105 0.12538959 -0.027940307 0.069554344 -0.1875534 -0.22723322
-0.0024204315 -0.056452833 0.255838 0.36342657 -0.01332374 -0.020283917 0.20314412 0.061076522
-0.124651775 -0.39822468 0.027812593 0.23528212 -0.23645501 0.18371773 0.00025886603 -0.05337497
0.24406472 0.068736814 -0.07035296 0.12240119 0.15197998 0.21679229 0.1484528 0.36148992
-0.1617784 -0.23047276 0.13103342 0.23407789 -0.16241966 -0.117691696 -0.14798102 0.07437381
0.3299022 -0.16137275 0.06617673 0.24686404 -0.116714165 -0.12850387 0.04865203 0.07107667
0.07848314 0.18000133 0.13587798 0.33304223 0.16431569 0.051895022 0.15888487 -0.09178308
0.19939159 0.017480854 0.08079466 0.25087437 0.31241152 0.24703243 0.022043843 -0.023458628
-0.038701303 -0.26691622 0.1130742 0.1344014 0.08950338 0.12724562 0.049935214 -0.21536508
-0.062308013 -0.03764083 -0.0732445 -0.040953003 -0.19313744 -0.13281274 0.32677665 -0.18635592
0.027769957 -0.22184889 0.11874222 0.16105564 -0.13427453 0.21703026 0.0983491 0.31432092
00000000: 08f0 863e 4687 a1bd 57ea 43bd b946 813c
00000010: 9226 533d 776c d53c 77f0 bc3e 132f dfbc
00000020: 0721 f4bd 11ad 6fbd bd52 1ebe c894 2dbd
00000030: 6da0 d4bd 2ca1 613e 0dbe 853d 8aa6 a93d
00000040: 959e 2c3e 25f1 143e 738d 023e baae 9dbe
00000050: db14 89be 5394 81be 8482 ecbd aaf6 a33b
00000060: 2ea0 3fbc 8189 c83d c357 c4bd bd3d 14bc
00000070: e5cd 0abe 62e7 17be 553f ca3e 107e 5cbc
00000080: 6314 c03d cecf 883e b0a3 083e 5576 9d3d
00000090: 3336 a93e b0d0 54be f6ca 40be c05a 4a3e
000000a0: 3c2b d83d 3c4b 3cbe 634e db3d 2166 003e
000000b0: 12e3 e4bc 8272 8e3d 000e 40be d3af 68be
000000c0: 1aa0 1ebb 163b 67bd 33fd 823e 0c13 ba3e
000000d0: d14b 5abc 752a a6bc 0305 503e 602b 7a3d
000000e0: 6e49 ffbd 1be4 cbbe 3cd7 e33c cced 703e
000000f0: 4321 72be 8020 3c3e 69b8 8739 b69f 5abd
00000100: 1aec 793e e3c5 8c3d 3615 90bd 7aad fa3d
00000110: a4a0 1b3e ccfe 5d3e 0304 183e 3515 b93e
00000120: 3da9 25be 0d01 6cbe a02d 063e 1db2 6f3e
00000130: 5751 26be 5808 f1bd 5688 17be 4c51 983d
00000140: f1e8 a83e e63e 25be aa87 873d edc9 7c3e
00000150: d607 efbd 8596 03be 5a47 473d a590 913d
00000160: c5bb a03d 4552 383e 9923 0b3e 8384 aa3e
00000170: 5f42 283e e08f 543d b7b2 223e c4f8 bbbd
00000180: 4f2d 4c3e 0234 8f3c ac77 a53d 9b72 803e
00000190: 67f4 9f3e 12f6 7c3e 4a95 b43c 4f2c c0bc
000001a0: 4285 1ebd 3ea9 88be 7293 e73d 85a0 093e
000001b0: 8c4d b73d ad4c 023e de88 4c3d aa88 5cbe
000001c0: b036 7fbd 452d 1abd 3601 96bd 56be 27bd
000001d0: d2c5 45be 1000 08be 454f a73e 16d4 3ebe
000001e0: d27d e33c 5b2c 63be 1f2f f33d c5eb 243e
000001f0: 437f 09be 2e3d 5e3e 416b c93d acee a03e

layers.0.attn_heads.0.query.bias f4 [8]
0.43059504 -0.031643096 -0.07854651 0.088241845 0.29151404 0.362685 0.28909492 -0.0863874
00000000: f476 dc3e 319c 01bd fedc a0bd 24b8 b43d
00000010: 5441 953e d9b1 b93e 4004 943e e1eb b0bd

layers.0.attn_heads.0.value.weight f4 [8, 16]
-0.2447381 -0.0035731178 0.16688572 -0.06825439 0.09649454 -0.17016017 0.20374914 -0.11227539
0.28155854 -0.27609354 -0.24929829 -0.178387 -0.16559824 -0.12809795 -0.14365245 0.016395584
-0.10559055 0.23506668 -0.11398094 -0.31493196 0.16792627 0.22391814 0.119880155 0.15801679
0.09516162 0.3942493 -0.1346303 0.112155646 0.1692573 -0.13277237 -0.30495784 0.013527199
0.1804233 0.20512967 0.0023691524 0.08580603 0.10892699 -0.145697 -0.36771476 -0.118529536
-0.21760216 -0.22913876 0.072356805 0.08475852 0.32969692 0.22066262 0.2035111 0.14607127
0.24464935 -0.052536156 0.34291816 -0.066504754 0.18005447 -0.1410328 0.06647667 0.24919792
-0.2772048 0.30941644 -0.4154759 -0.1054221 0.04252844 -0.008887276 0.16029705 0.06700838
-0.25611588 -0.10644017 0.16913573 0.056230854 -0.3139263 0.0969233 0.1285923 -0.16081974
-0.06320795 0.12718478 -0.35153073 0.17669085 -0.35255238 -0.061101865 -0.31945464 -0.24205117
-0.024476847 -0.25188142 -0.14499637 0.26439515 0.19749485 0.0677645 0.06801222 -0.27952987
0.32202467 0.13884524 -0.19240473 0.009056773 -0.32886928 -0.098838545 0.018523468 0.22300811
0.112576954 -0.25300825 0.15889758 0.43417227 0.18000638 0.27026957 0.24154346 0.008148734
0.10658003 0.083300725 -0.051105946 0.17653598 -0.0035270017 -0.06034473 -0.13313067 -0.03874272
-0.09368998 -0.30545366 0.030501945 0.23106153 -0.08636667 0.22440231 0.20725253 0.01936653
-0.3152447 0.13094874 -0.42901886 0.12212611 0.117697656 0.02149395 0.14780056 -0.26702255
00000000: a09c 7abe f82a 6abb 17e4 2a3e f5c8 8bbd
00000010: ee9e c53d 783e 2ebe 9da3 503e a4f0 e5bd
00000020: 7128 903e 225c 8dbe 0d48 7fbe 15ab 36be
00000030: 9692 29be 1c2c 03be a119 13be 0850 863c
00000040: dc3f d8bd 52b5 703e d76e e9bd c33e a1be
00000050: ddf4 2b3e cc4a 653e ba83 f53d 27cf 213e
00000060: 18e4 c23d 0bdb c93e 86dc 09be dcb1 e53d
00000070: c951 2d3e 7bf5 07be 6f23 9cbe 2fa1 5d3c
00000080: e3c0 383e 830d 523e c843 1b3b 12bb af3d
00000090: 1d15 df3d 9831 15be 1c45 bcbe 9dbf f2bd
000000a0: 1ad3 5ebe 5aa3 6abe ce2f 943d e095 ad3d
000000b0: 09ce a83e 62f5 613e 3765 503e b593 153e
000000c0: 5c85 7a3e 2730 57bd f892 af3e a533 88bd
000000d0: 3360 383e e76a 10be ec24 883d bd2d 7f3e
000000e0: caed 8dbe d56b 9e3e 42b9 d4be 8be7 d7bd
000000f0: 4d32 2e3d f09b 11bc e924 243e b13b 893d
00000100: 9f21 83be 4efd d9bd eb31 2d3e 5352 663d
00000110: f3ba a0be b97f c63d b3ad 033e eead 24be
00000120: 2b73 81bd ba3c 023e d6fb b3be 72ee 343e
00000130: bf81 b4be f345 7abd 8f8f a3be 43dc 77be
00000140: ab83 c8bc 9af6 80be ee79 14be cd5e 873e
00000150: 173c 4a3e 1dc8 8a3d fe49 8b3d 8a1e 8fbe
00000160: 6be0 a43e 722d 0e3e bf05 45be dc62 143c
00000170: 8e61 a8be dd6b cabd 87be 973c 3d5c 643e
00000180: bf8e e63d 4c8a 81be 0cb6 223e d44b de3e
00000190: 9853 383e c660 8a3e 2b57 773e 4582 053c
000001a0: a146 da3d 9299 aa3d 7854 51bd d9c5 343e
000001b0: 4525 67bb 092c 77bd 6853 08be b0b0 1ebd
000001c0: 88e0 bfbd 6c64 9cbe 37df f93c 659b 6c3e
000001d0: 02e1 b0bd b8c9 653e 023a 543e 8fa6 9e3c
000001e0: c167 a1be 6d17 063e 5ca8 dbbe 411d fa3d
000001f0: 780b f13d 1514 b03c 0859 173e 2eb7 88be

layers.0.attn_heads.0.value.bias f4 [8]
0.1356445 0.092138745 0.13711816 -0.16374508 -0.2474742 0.2511577 0.1762887 0.15519692
00000000: 64e6 0a3e 3db3 bc3d b468 0c3e caac 27be
00000010: e069 7dbe be97 803e 0685 343e f1eb 1e3e

layers.0.attn_heads.1.key.weight f4 [8, 16]
0.11648117 -0.025601162 -0.19262451 0.118640624 -0.037669007 -0.26582623 -0.22319339 0.13411804
-0.3379383 -0.19375892 -0.16580193 0.041238833 -0.25375533 -0.29436505 -0.3169216 0.027280556
0.22294638 0.2083841 -0.11269596 -0.18178537 -0.21092941 0.10976769 0.3170878 0.20124121
-0.05356533 -0.014960204 -0.09713831 0.29551074 -0.09094103 -0.007849032 -0.03235127 0.047449797
-0.030530615 -0.16741712 0.22120981 -0.22597472 -0.22122875 -0.35593513 -0.27555576 0.154138
-0.089773476 -0.1926701 -0.06743299 0.03362 -0.34161523 0.037316542 0.002337471 0.034386143
0.22627576 0.08122048 -0.07120177 -0.06121232 -0.10647191 -0.11537954 -0.10384627 0.19794764
0.2309581 -0.17517625 -0.38094234 -0.015363515 -0.21518925 -0.12607509 -0.09949346 -0.09188776
-0.17426161 -0.19895314 -0.15087572 -0.13222282 0.0653058 -0.27603948 -0.2697582 -0.102350496
-0.26442364 0.041898053 -0.27822918 0.010894005 0.024080891 0.0062807235 -0.0034557479 0.22378443
-0.06001908 -0.18551046 0.15819684 0.15303363 -0.18399529 -0.06794208 0.20680238 -0.019859357
0.018731056 -0.10611637 -0.3840437 -0.38603038 -0.31094778 -0.22163445 -0.27502972 -0.38434312
-0.1790946 0.32707784 -0.15744914 0.11434939 -0.1796967 0.19692843 -0.031318747 0.30195194
-0.12962101 -0.13750723 -0.25914386 -0.3665575 -0.10668503 -0.30880493 -0.0005998289 -0.0073434566
0.21823525 -0.26809323 0.27878204 0.1860069 0.070637316 -0.0681186 -0.19395001 -0.122113094
-0.2595033 0.13164975 -0.23663408 -0.061853003 -0.010515665 -0.23557565 0.026573606 -0.3844891
00000000: ae8d ee3d 87b9 d1bc 5c3f 45be dbf9 f23d
00000010: d14a 1abd 601a 88be cf8c 64be 3d56 093e
00000020: 4006 adbe bd68 46be fbc7 29be 0dea 283d
00000030: 38ec 81be 04b7 96be 8c43 a2be 797b df3c
00000040: 0e4c 643e a462 553e 24cd e6bd f225 3abe
00000050: e1fd 57be e2cd e03d 5559 a23e 2d12 4e3e
00000060: 5267 5bbd a51b 75bc 73f0 c6bd 2f4d 973e
00000070: 4a3f babd 3a99 00bc c482 04bd b85a 423d
00000080: 571b fabc 656f 2bbe d384 623e eb65 67be
00000090: ca89 62be 213d b6be a515 8dbe 5ad6 1d3e
000000a0: 28db b7bd 504b 45be 4f1a 8abd 20b5 093d
000000b0: 31e8 aebe 3bd9 183d 4230 193b 7cd8 0c3d
000000c0: d5b4 673e ec56 a63d 3cd2 91bd c5b9 7abd
000000d0: f20d dabd 1c4c ecbd 5aad d4bd c9b2 4a3e
000000e0: 4880 6c3e 6761 33be e00a c3be 41b7 7bbc
000000f0: 925a 5cbe d419 01be 3ac3 cbbd a62f bcbd
00000100: a371 32be 5fba 4bbe 2a7f 1abe 6b65 07be
00000110: 0cbf 853d 0c55 8dbe bf1d 8abe 239d d1bd
00000120: 8962 87be 4b9d 2b3d 0e74 8ebe c57c 323c
00000130: 4a45 c53c 87ce cd3b d479 62bb bf27 653e
00000140: 91d6 75bd 74f6 3dbe 5afe 213e d9b4 1c3e
00000150: 4369 3cbe 3825 8bbd 01c4 533e 17b0 a2bc
00000160: df71 993c 8a53 d9bd 60a1 c4be c6a5 c5be
00000170: 8c34 9fbe 24f4 62be b2d0 8cbe 9fc8 c4be
00000180: 9364 37be bf76 a73e 593a 21be 0330 ea3d
00000190: 6902 38be 9ba7 493e 1648 00bd 7299 9a3e
000001a0: 5fbb 04be b2ce 0cbe 81ae 84be 6dad bbbe
000001b0: ae7d dabd ae1b 9ebe d63d 1dba 61a1 f0bb
000001c0: 1079 5f3e 8443 89be 85bc 8e3e 9878 3e3e
000001d0: 4caa 903d c481 8bbd d59a 46be 6e16 fabd
000001e0: 9edd 84be 31cf 063e 3450 72be 9359 7dbd
000001f0: e549 2cbc be3a 71be e4b0 d93c c1db c4be

layers.0.attn_heads.1.key.bias f4 [8]
0.00033072263 0.17056178 0.07688592 -0.1937442 0.15623161 0.15060078 0.12768513 0.07955649
00000000: d764 ad39 bfa7 2e3e 5d76 9d3d e164 46be
00000010: 2efb 1f3e 1737 1a3e e4bf 023e 83ee a23d

layers.0.attn_heads.1.query.weight f4 [8, 16]
0.032226324 0.18025115 0.08200955 0.10981491 -0.21789232 -0.047000673 -0.22588247 0.10020891
0.07118338 -0.17363541 0.20006905 -0.3038393 0.11473815 -0.056697927 0.14466651 -0.117699854
0.13449556 0.068051785 0.17150562 -0.22886305 -0.14000535 -0.21052139 0.104067214 0.10537635
0.24444799 -0.21774869 0.020198891 0.2748877 0.20119753 -0.14702947 0.09251589 -0.036229685
0.16889001 0.051888365 0.15420036 0.13092694 -0.08934528 -0.07873774 0.12337116 0.038559023
0.05905532 -0.21805231 -0.12299505 0.010641557 -0.23829679 -0.014279364 -0.13627891 -0.11383592
-0.11176304 0.3161172 -0.032279223 -0.21344571 0.18588448 -0.21890867 -0.19556531 0.02768178
0.13239512 0.0382176 0.054928668 -0.37227196 -0.08862058 -0.1069602 -0.22683536 0.059361592
0.2234381 -0.29121768 0.059454247 -0.09389593 -0.048923075 0.09914676 -0.26271436 -0.18474714
0.26331487 -0.087294824 0.08780575 -0.09289033 0.11466254 0.22279361 0.3796559 0.20164563
-0.2722853 0.493363 0.20310917 -0.043214973 -0.16900179 -0.061743245 0.018738806 0.11771866
-0.035610776 0.18256612 -0.15305132 -0.44861224 -0.06761768 -0.34264344 0.114157945 -0.17506854
0.19747998 0.26705977 0.10011415 0.10065339 -0.37750643 -0.024616562 -0.32160336 0.22215776
-0.088461444 0.03574547 -0.055281594 0.13301776 -0.19512662 -0.29326078 -0.12890941 -0.19754606
0.05796334 0.06749795 -0.18163228 0.002115485 -0.13288063 -0.18170853 0.12858157 -0.25549656
-0.071320154 0.26060528 -0.17237493 -0.32328466 -0.21247548 -0.23212762 0.20621665 -0.018502682
00000000: c0ff 033d c293 383e 9ff4 a73d a4e6 e03d
00000010: 2a1f 5fbe c783 40bd bc4d 67be 543a cd3d
00000020: 98c8 913d 7bcd 31be e7de 4c3e d390 9bbe
00000030: d6fb ea3d 163c 68bd 7523 143e 9f0c f1bd
00000040: 34b9 093e bc5e 8b3d 2b9f 2f3e 135b 6abe
00000050: 905d 0fbe eb92 57be 3121 d53d 8ecf d73d
00000060: 9350 7a3e 83f9 5ebe 2578 a53c 15be 8c3e
00000070: ba06 4e3e e58e 16be f978 bd3d 9465 14bd
00000080: 81f1 2c3e e588 543d b3e6 1d3e b611 063e
00000090: a8fa b6bd 4141 a1bd 05aa fc3d 11f0 1d3d
000000a0: fee3 713d 1b49 5fbe d4e4 fbbd ed59 2e3c
000000b0: 1304 74be fef3 69bc b38c 0bbe cf22 e9bd
000000c0: 05e4 e4bd 1dda a13e 3837 04bd 8391 5abe
000000d0: 8058 3e3e 9829 60be 4642 48be e6c4 e23c
000000e0: 9692 073e 0f8a 1c3d e2fc 603d 6e9a bebe
000000f0: b57e b5bd f30d dbbd 8747 68be 2425 733d
00000100: f5cc 643e 7c1a 95be 4c86 733d 824c c0bd
00000110: 9063 48bd 750d cb3d 7f82 86be 5b2e 3dbe
00000120: 35d1 863e a1c7 b2bd 80d3 b33d 493d bebd
00000130: 32d4 ea3d 0224 643e 4262 c23e 317c 4e3e
00000140: fb68 8bbe 139a fc3e dafb 4f3e 2f02 31bd
00000150: ce0e 2dbe 7ce6 7cbd 2082 993c 7b16 f13d
00000160: 9bdc 11bd 9df2 3a3e 7cb9 1cbe 81b0 e5be
00000170: 237b 8abd f66e afbe a4cb e93d 2b45 33be
00000180: 3138 4a3e 0fbc 883e a608 cd3d 5d23 ce3d
00000190: 8648 c1be aca8 c9bc 32a9 a4be 537d 633e
000001a0: 462b b5bd d869 123d f46e 62bd cf35 083e
000001b0: 46cf 47be 4726 96be d400 04be 8449 4abe
000001c0: f86a 6d3d 5d3c 8a3d d0fd 39be f3a3 0a3b
000001d0: dc11 08be cd11 3abe e3aa 033e 72d0 82be
000001e0: 4d10 92bd 0e6e 853e 0e83 30be 9185 a5be
000001f0: 2c93 59be ddb2 6dbe 752a 533e f092 97bc

layers.0.attn_heads.1.query.bias f4 [8]
-0.39650384 0.26850548 -0.29924923 0.05551174 -0.25133854 -0.0683757 -0.2208955 -0.12406946
00000000: 8d02 cbbe 8d79 893e 3237 99be 4760 633d
00000010: 72af 80be 8f08 8cbd 6e32 62be 2118 febd

layers.0.attn_heads.1.value.weight f4 [8, 16]
-0.1729201 -0.41692337 0.26270843 -0.08577609 0.19407949 -0.27380192 -0.0588421 0.0454835
-0.121971816 0.029521238 -0.21402514 -0.11379725 -0.25261095 -0.16018538 -0.016174924 -0.15252423
-0.11836957 -0.002509703 -0.113741465 0.0939249 -0.14957857 0.057285953 -0.2903829 -0.22443342
0.21924861 0.04867995 0.16967471 -0.2000014 0.27738118 0.14797963 -0.23451559 -0.17692004
-0.1527638 -0.13665111 -0.29622394 -0.059638117 -0.21019903 -0.053130496 0.31424573 0.15365192
0.16130275 0.0068917596 0.1090471 -0.1097315 0.002958954 0.03731275 -0.081268474 0.17607792
-0.053692184 -0.05222676 0.23707107 -0.017496169 0.2786874 0.027040366 0.06393696 -0.29689553
-0.03651234 -0.29154488 -0.11019209 -0.029124182 -0.16835754 0.025023956 -0.30639076 -0.043259297
-0.20267135 -0.1970379 0.15736741 -0.10770709 -0.09402335 0.23262332 -0.18829915 -0.032869708
-0.30222404 0.25563008 -0.0011308651 -0.22281595 0.04156955 -0.06268184 -0.21904917 0.05451386
0.047512885 -0.37948138 0.19281045 0.133838 -0.066077866 -0.25024942 -0.3502957 -0.15154168
-0.18932217 -0.01176521 -0.048163652 -0.08064302 -0.08884239 -0.070638284 -0.39032292 0.17285335
-0.22054072 -0.19655825 0.14247274 0.23359783 -0.17882058 0.08277522 0.2213163 -0.15389739
0.2245794 0.205461 -0.27259302 -0.055811923 -0.16790773 -0.2034487 0.021166168 0.21508457
-0.22468035 -0.06908348 0.0021583603 0.21342775 0.18483573 0.15799578 0.14587568 0.16387802
-0.1071425 0.081147 -0.009894597 0.17406817 0.047547113 -0.22672635 0.2556166 -0.021351608
00000000: f711 31be fb76 d5be b881 863e 60ab afbd
00000010: c6bc 463e c42f 8cbe 6a04 71bd e84c 3a3d
00000020: 5ccc f9bd 86d6 f13c 6829 5bbe 880e e9bd
00000030: 3956 81be a307 24be 4681 84bc 502f 1cbe
00000040: bf6b f2bd d479 24bb 49f1 e8bd b35b c03d
00000050: 202b 19be ada4 6a3d 11ad 94be e0d1 65be
00000060: b582 603e a164 473d 35bf 2d3e 2bcd 4cbe
00000070: e804 8e3e f987 173e db24 70be 872a 35be
00000080: 1d6e 1cbe 45ee 0bbe aaaa 97be 1947 74bd
00000090: 6a3e 57be 5d9f 59bd d1e4 a03e ee56 1d3e
000000a0: 8c2c 253e 45d4 e13b 1654 df3d e9ba e0bd
000000b0: 03eb 413b 41d5 183d 1670 a6bd c54d 343e
000000c0: 56ec 5bbd baeb 55bd c2c2 723e 2054 8fbc
000000d0: 1db0 8e3e c283 dd3c 62f1 823d b102 98be
000000e0: f78d 15bd 5f45 95be 64ac e1bd d695 eebc
000000f0: eb65 2cbe 0aff cc3c 40df 9cbe a930 31bd
00000100: 1489 4fbe 4ec4 49be ec24 213e 8995 dcbd
00000110: 508f c0bd cf34 6e3e 7ed1 40be 63a2 06bd
00000120: 1cbd 9abe f2e1 823e 8939 94ba dd29 64be
00000130: d544 2a3d 565f 80bd 6d4e 60be ed49 5f3d
00000140: df9c 423d 624b c2be 1a70 453e d40c 093e
00000150: d553 87bd b120 80be f559 b3be be2d 1bbe
00000160: acdd 41be dec2 40bc 4047 45bd 2b28 a5bd
00000170: 00f3 b5bd ceaa 90bd 68d8 c7be 7800 313e
00000180: 6dd5 61be 9146 49be 60e4 113e 4534 6f3e
00000190: be1c 37be 0e86 a93d bda0 623e 4797 1dbe
000001a0: 24f8 653e 5e64 523e 5091 8bbe 0b9b 64bd
000001b0: 01f0 2bbe db54 50be ac64 ad3c 213f 5c3e
000001c0: 9b12 66be a47b 8dbd 4773 0d3b ce8c 5a3e
000001d0: 9445 3d3e a5c9 213e 6f60 153e a4cf 273e
000001e0: 876d dbbd 6630 a63d f31c 22bc ed3e 323e
000001f0: c3c0 423d f42a 68be 2ee0 823e 91e9 aebc

layers.0.attn_heads.1.value.bias f4 [8]
0.14622791 -0.24448614 -0.13791165 0.14012201 -0.30235875 -0.017594453 0.14855656 -0.107424535
00000000: c5bc 153e 935a 7abe b638 0dbe 257c 0f3e
00000010: c4ce 9abe 3e22 90bc 361f 183e 6501 dcbd

layers.0.attn_heads.2.key.weight f4 [8, 16]
0.023184082 0.15320869 -0.15726484 -0.13020374 0.07415484 0.031009506 0.34739962 -0.003321704
-0.2533495 0.14531758 0.24033603 0.010846816 -0.3102798 -0.0027282198 0.17843264 -0.059694413
-0.26185942 0.011139276 -0.005164738 0.2181093 0.24657436 0.104727246 0.21496034 -0.3394579
-0.20002078 0.010618127 -0.0010522889 0.01024389 -0.21803899 -0.1343289 -0.3702648 -0.14341684
-0.30631787 0.173591 0.052620817 -0.013722853 -0.23254757 -0.009185992 0.06888994 -0.05588536
-0.16766173 0.123906486 0.13794571 -0.18803959 -0.1566006 0.08667108 -0.23942468 0.23413976
-0.13965066 -0.2049003 0.16505127 -0.097553924 0.124051146 0.1294922 0.06800654 0.1391414
-0.31235012 0.27721784 -0.04858237 -0.13532819 -0.17336418 0.24152076 0.061048545 -0.25161415
-0.074672975 -0.115149796 -0.10285656 -0.0054717846 0.091260135 0.28415602 -0.10475195 -0.058267847
0.116296634 0.23285893 0.19239767 -0.049000163 0.005403657 0.04636802 0.34549868 0.13346191
-0.13013725 0.19643041 -0.11079103 0.069495924 -0.034021407 -0.09598998 -0.19399501 -0.44205502
0.062791914 -0.29318917 0.011795731 -0.11219642 0.10958524 0.11836468 -0.3222766 0.2371448
-0.071685895 0.026131053 -0.051492244 -0.07045046 -0.0320194 -0.0057881675 -0.12861298 0.17238387
0.19842735 0.05704233 -0.0021042249 0.2743998 0.32471105 0.21236254 0.117228895 0.13426062
0.07096232 0.28995624 0.013917655 0.016079012 0.1459353 0.20143008 -0.08254078 -0.073664404
-0.25492272 -0.023697836 -0.27841473 0.03399489 -0.16230068 -0.21847786 -0.050927415 -0.14946762
00000000: 8bec bd3c bde2 1c3e 090a 21be 2154 05be
00000010: 7ede 973d a607 fe3c 5dde b13e f2b0 59bb
00000020: 07b7 81be 22ce 143e a61a 763e d8b6 313c
00000030: fedc 9ebe efcb 32bb 0cb7 363e 2182 74bd
00000040: 7012 86be 8381 363c f63c a9bb 0b58 5f3e
00000050: fd7d 7c3e 3d7b d63d 901e 5c3e 6dcd adbe
00000060: 3fd2 4cbe a7f7 2d3c f5ec 89ba fdd5 273c
00000070: 9d45 5fbe 848d 09be 5993 bdbe dddb 12be
00000080: b2d5 9cbe d7c1 313e ed88 573d d1d5 60bc
00000090: f320 6ebe d880 16bc 2b16 8d3d 0ce8 64bd
000000a0: 84af 2bbe afc2 fd3d a441 0d3e 738d 40be
000000b0: e85b 20be 9b80 b13d be2b 75be 55c2 6f3e
000000c0: 9500 0fbe 62d1 51be 3303 293e 5aca c7bd
000000d0: 870e fe3d 9a99 043e 0347 8b3d 157b 0e3e
000000e0: 5bec 9fbe 7fef 8d3e 4ffe 46bd 7993 0abe
000000f0: 6186 31be 3851 773e 0a0e 7a3d 92d3 80be
00000100: 25ee 98bd a8d3 ebbd 76a6 d2bd a84c b3bb
00000110: 98e6 ba3d e67c 913e 3188 d6bd 44aa 6ebd
00000120: ee2c ee3d 9272 6e3e e503 453e 65b4 48bd
00000130: 2911 b13b 65ec 3d3d 34e5 b03e 3daa 083e
00000140: b342 05be 0e25 493e 68e6 e2bd e153 8e3d
00000150: 085a 0bbd 6596 c4bd a1a6 46be 0955 e2be
00000160: 0c99 803d e41c 96be e242 413c 3dc7 e5bd
00000170: 3a6e e03d 2e69 f23d 7001 a5be 16d6 723e
00000180: 0ed0 92bd ca10 d63c 88e9 52bd 5548 90bd
00000190: c626 03bd abaa bdbb 1fb3 03be 6685 303e
000001a0: 8a30 4b3e 38a5 693d 09e7 09bb 217e 8c3e
000001b0: 8740 a63e 9175 593e b415 f03d 9e7b 093e
000001c0: b154 913d 2575 943e e006 643c 22b8 833c
000001d0: 1070 153e b043 4e3e 240b a9bd 5ddd 96bd
000001e0: 3b85 82be f721 c2bc 608c 8ebe 3a3e 0b3d
000001f0: 2632 26be a9b8 5fbe 4499 50bd 0a0e 19be

layers.0.attn_heads.2.key.bias f4 [8]
0.12646185 0.16868308 -0.1227552 -0.13376561 0.01041816 0.20760779 -0.008942546 0.030728793
00000000: 377f 013e 42bb 2c3e 1467 fbbd daf9 08be
00000010: eeb0 2a3c 2397 543e c283 12bc f3ba fb3c

layers.0.attn_heads.2.query.weight f4 [8, 16]
-0.13809472 0.15900597 -0.121920794 -0.08084764 0.057750758 -0.050021976 -0.13008755 -0.17828417
0.26712587 -0.03614123 -0.040356163 -0.38459542 -0.06201307 -0.25032595 0.014774616 -0.1324536
0.22086388 0.01648431 -0.13140237 -0.1756665 0.33847246 -0.019385204 0.05667087 -0.20907876
0.289841 0.10169325 -0.22850396 0.16048165 0.16868754 -0.16497484 0.13216518 -0.0808084
0.03350498 0.21535595 0.2061466 0.37612912 0.32772064 0.01988966 0.090524785 -0.19266553
0.25362378 0.04557894 0.29887328 0.085019015 -0.1347235 -0.011616142 0.2853681 0.11043278
-0.03135302 0.16889697 0.06289278 -0.08168031 -0.14566661 -0.023032486 0.005586029 -0.11633807
-0.070468314 -0.16097337 -0.23205152 0.007353566 -0.31368506 -0.19524714 -0.034385923 -0.12463156
-0.002113915 -0.09756645 -0.15817149 -0.22673693 0.05175336 0.07357292 -0.100573726 0.16887474
0.030165182 0.18236545 0.03713653 -0.24394628 -0.15230103 0.09811847 0.11524566 -0.20613785
0.30781057 -0.101233155 -0.10403554 -0.06393754 0.0116733145 -0.10930943 0.22668454 -0.12976125
0.08918902 0.14584045 0.05651317 0.34571967 0.37252814 -0.04230154 0.24333094 0.030180048
0.15917607 -0.014544896 -0.17800784 0.23782085 -0.24049723 0.37510404 -0.07495429 0.2450352
-0.3493594 0.059181232 0.017687207 0.2233238 0.027322192 0.0036647404 -0.02836788 -0.02470489
-0.09067484 0.20456696 0.11903648 -0.037887737 0.121592656 0.010492981 -0.19957355 -0.36764255
0.3511058 -0.19191937 0.0656245 0.07877549 -0.012271349 -0.1763248 -0.22184011 -0.16611403
00000000: b468 0dbe 76d2 223e 9cb1 f9bd 7393 a5bd
00000010: 0f8c 6c3d d8e3 4cbd ac35 05be 2090 36be
00000020: b9c4 883e d408 14bd 814c 25bd b1e9 c4be
00000030: 6b01 7ebd b92a 80be 3b11 723c eba1 07be
00000040: 242a 623e 1b0a 873c 588e 06be ebe1 33be
00000050: 434c ad3e b8cd 9ebc b71f 683d be18 56be
00000060: 0a66 943e 8d44 d03d f1fc 69be 4d55 243e
00000070: 6dbc 2c3e 2aef 28be 4f56 073e e07e a5bd
00000080: 853c 093d 4586 5c3e 1818 533e ff93 c03e
00000090: 00cb a73e a4ef a23c 0f65 b93d 1d4a 45be
000000a0: fada 813e fcb0 3a3d eb05 993e 731e ae3d
000000b0: f5f4 09be a151 3ebc c51b 923e 952a e23d
000000c0: 066c 00bd 54f3 2c3e eecd 803d 0248 a7bd
000000d0: a129 15be a0ae bcbc 020b b73b a742 eebd
000000e0: b151 90bd 34d6 24be ea9e 6dbe 2ff6 f03b
000000f0: 549b a0be deee 47be 41d8 0cbd d53e ffbd
00000100: 9c89 0abb ebd0 c7bd b5f7 21be ba2d 68be
00000110: 55fb 533d 66ad 963d 99f9 cdbd 80ed 2c3e
00000120: f91c f73c 02be 3a3e 791c 183d 0ecd 79be
00000130: cdf4 1bbe 56f2 c83d eb05 ec3d cd15 53be
00000140: 5999 9d3e 5453 cfbd 9610 d5bd aff1 82bd
00000150: 6e41 3f3c 9fdd dfbd fe1f 683e 22e0 04be
00000160: bca8 b63d 3357 153e 5b7a 673d 2b02 b13e
00000170: 02bc be3e 6144 2dbd bf2b 793e 263c f73c
00000180: 0dff 223e b74d 6ebc b047 36be 4f87 733e
00000190: e844 76be a30d c03e a381 99bd 82ea 7a3e
000001a0: 3cdf b2be 0568 723d c3e4 903c ffae 643e
000001b0: cad2 df3c 242c 703b c263 e8bc e961 cabc
000001c0: bbb3 b9bd 007a 513e 66c9 f33d 2c30 1bbd
000001d0: 9205 f93d c1ea 2b3c 025d 4cbe a53b bcbe
000001e0: 24c4 b33e 8386 44be 2366 863d 0b55 a13d
000001f0: c50d 49bc 7d8e 34be 0e2a 63be cc19 2abe

layers.0.attn_heads.2.query.bias f4 [8]
-0.012217333 0.09367916 0.10400193 -0.31127843 -0.14614664 0.021858798 -0.12259379 -0.053984392
00000000: 352b 48bc dcda bf3d f7fe d43d e35f 9fbe
00000010: 77a7 15be 3911 b33c 7412 fbbd bd1e 5dbd

layers.0.attn_heads.2.value.weight f4 [8, 16]
0.09456261 0.03048575 0.13354099 -0.24131063 -0.24528533 -0.05145692 -0.23662929 0.09123443
-0.08869912 0.004680276 -0.33382037 -0.03958395 -0.047582608 -0.48227006 -0.27056172 0.19082883
-0.17197208 -0.23373064 -0.030810317 0.10073964 0.23370357 0.14079459 0.19371264 0.0331561
-0.11856635 0.3381296 0.20567712 -0.15852123 0.026495935 -0.025332088 -0.1760672 -0.24860281
-0.26267138 0.015466181 -0.38803324 -0.3313516 0.25645158 0.19459178 0.17419492 0.27843475
0.15197901 0.010326701 0.1504852 -0.066012755 -0.15308774 -0.30365494 0.14144538 0.14655055
0.2178457 -0.34592915 -0.19692576 -0.10312528 0.08159331 -0.20828976 -0.064978175 0.2078069
-0.041648 -0.033347752 -0.4555946 0.1659708 0.27281994 -0.32288438 0.16985676 0.20468773
-0.016061643 -0.35477287 0.12798332 -0.16821139 0.20905082 -0.37504792 0.045077704 -0.011993286
0.01491459 -0.46134576 -0.33899143 0.060596023 -0.08329836 -0.027903331 0.24317946 0.13887686
0.1237639 -0.21615636 -0.24979405 -0.23285855 0.28951958 0.22017108 -0.02331872 0.12153336
0.30250555 0.09882428 0.3515088 0.15195057 0.028417727 0.39340693 -0.029248483 -0.09311244
-0.147961 -0.12522319 -0.23796593 -0.0679366 0.15442194 -0.21766323 -0.3757807 0.11583101
0.34248817 0.033093322 0.43500677 0.17775537 0.33756092 0.0469578 0.1025971 0.06525899
-0.046550903 -0.050119884 0.33673337 -0.068863854 0.089791 -0.2507125 -0.18512651 -0.29952472
0.23759696 -0.27642927 -0.49563268 0.23792428 0.10114662 -0.0032967005 0.0727903 0.10626602
00000000: 0baa c13d 40bd f93c f8be 083e 221a 77be
00000010: 142c 7bbe 7ec4 52bd f34e 72be 1ed9 ba3d
00000020: e2a7 b5bd 005d 993b 81ea aabe c822 22bd
00000030: fbe5 42bd 1aec f6be 1187 8abe a268 433e
00000040: 7319 30be 1657 6fbe eb65 fcbc 9650 ce3d
00000050: fd4f 6f3e 752c 103e 9b5c 463e b1ce 073d
00000060: ead2 f2bd 531f ad3e 069d 523e 6453 22be
00000070: 010e d93c 3d85 cfbc f64a 34be bc91 7ebe
00000080: dd7c 86be dd65 7d3c 4bac c6be eba6 a9be
00000090: 9f4d 833e 1143 473e 2760 323e 008f 8e3e
000000a0: 63a0 1b3e 5331 293c cb18 1a3e b231 87bd
000000b0: 08c3 1cbe a978 9bbe 0fd7 103e 5911 163e
000000c0: f112 5f3e a01d b1be e8a6 49be 5933 d3bd
000000d0: 651a a73d e949 55be 4713 85bd 55cb 543e
000000e0: 1897 2abd a797 08bd b243 e9be 40f4 293e
000000f0: 0eaf 8b3e 1a51 a5be eeee 2d3e a999 513e
00000100: b593 83bc caa4 b5be 0f0e 033e 9b3f 2cbe
00000110: 6b11 563e 4806 c0be 66a3 383d 7d7f 44bc
00000120: 535c 743c 8335 ecbe 4990 adbe 8933 783d
00000130: 5598 aabd 8795 e4bc 0904 793e bc35 0e3e
00000140: ed77 fd3d 1858 5dbe 03ca 7fbe 7972 6ebe
00000150: e93b 943e 8774 613e e606 bfbc 7be6 f83d
00000160: 02e2 9a3e 6264 ca3d f6f8 b33e ee98 1b3e
00000170: 4bcc e83c a26c c93e 849a efbc bcb1 bebd
00000180: 1783 17be 823a 00be 57ad 73be 5822 8bbd
00000190: c920 1e3e 1ce3 5ebe 5466 c0be cf38 ed3d
000001a0: 9c5a af3e dd8c 073d 35b9 de3e 8105 363e
000001b0: c9d4 ac3e d256 403d 6e1e d23d 81a6 853d
000001c0: 29ac 3ebd 824a 4dbd 5168 ac3e 7e08 8dbd
000001d0: 58e4 b73d 645d 80be ce91 3dbe 4e5b 99be
000001e0: 9e4c 733e 2388 8dbe 91c3 fdbe 6ca2 733e
000001f0: f625 cf3d 750d 58bb 1513 953d 00a2 d93d

layers.0.attn_heads.2.value.bias f4 [8]
-0.17560978 0.22372274 -0.016775705 -0.04366496 -0.06322169 -0.17385261 -0.095465764 -0.13140069
00000000: 0dd3 33be 9317 653e 346d 89bc 07da 32bd
00000010: 607a 81bd 6b06 32be 8e83 c3bd e78d 06be

layers.0.attn_heads.3.key.weight f4 [8, 16]
-0.22634137 -0.048219673 0.019244557 0.29459178 0.04649945 -0.13776055 -0.1497149 0.09847967
-0.17146368 0.0017269872 0.3005598 0.19454268 -0.21705589 0.058689777 -0.12343724 0.22921851
-0.18775009 0.13323162 0.09205415 -0.1088808 -0.1616024 -0.090071075 -0.11464167 0.29251927
0.15883008 0.25405926 -0.2590761 -0.10887143 0.088593334 -0.2909587 -0.24533963 -0.1857174
-0.037626516 -0.2214353 0.19075054 0.22929783 -0.04422739 -0.08247596 -0.23295398 -0.075642094
-0.0431442 0.16317423 0.121691436 -0.08793301 0.10331229 -0.10368073 -0.06559067 0.3700709
-0.107767604 -0.08382426 0.21919678 0.15987141 -0.057040438 0.2329369 -0.3570682 0.07810659
-0.12517406 0.11522464 -0.122857854 0.11662337 -0.088960215 0.26465756 -0.15223268 0.21209261
-0.01605973 -0.036982097 0.041413184 -0.24460968 0.12663187 0.1721774 0.11484745 -0.007658303
0.27288687 0.18978043 -0.037349895 0.08780996 0.0726942 0.04860983 0.1555112 0.033237725
-0.08189819 0.041485474 -0.18056801 0.029148385 0.2155364 0.09552635 0.6026002 -0.13094682
-0.10213385 0.08601691 -0.07118741 -0.20751807 -0.031239526 -0.048294228 -0.18187295 0.02177681
0.16070312 -0.02060189 0.02937463 -0.19390094 0.3066008 -0.26520264 0.21264444 0.060565572
-0.074223824 -0.15710975 -0.1617545 -0.28446448 -0.14575943 -0.28826115 0.10749081 -0.29138285
-0.32337874 0.10451255 0.050401654 0.14163893 0.032425124 0.059186824 0.024764746 0.3473102
0.14982334 -0.11885802 -0.1335644 0.084889516 -0.28974262 -0.027553516 -0.04005896 0.013446409
00000000: 08c6 67be fe81 45bd c3a6 9d3c bcd4 963e
00000010: 3576 3e3d 1a11 0dbe dd4e 19be b6af c93d
00000020: 2d94 2fbe 135c e23a f9e2 993e 3236 473e
00000030: e643 5ebe b164 703d aacc fcbd 42b8 6a3e
00000040: 8f41 40be df6d 083e e386 bc3d e6fc debd
00000050: 197b 25be 2f77 b8bd 40c9 eabd 16c5 953e
00000060: 5aa4 223e 0e14 823e 9fa5 84be fcf7 debd
00000070: 6c70 b53d 8af8 94be 503a 7bbe b42c 3ebe
00000080: 431e 1abd efbf 62be 1c54 433e 0dcd 6a3e
00000090: c827 35bd 28e9 a8bd 7d8b 6ebe 3eea 9abd
000000a0: f9b7 30bd 2517 273e 5c39 f93d 3916 b4bd
000000b0: 6595 d33d 9056 d4bd 6754 86bd ef79 bd3e
000000c0: 43b5 dcbd 0eac abbd 1f75 603e 55b5 233e
000000d0: 3ca3 69bd 0387 6e3e a5d1 b6be 59f6 9f3d
000000e0: a12d 00be e5fa eb3d e69c fbbd 3cd8 ee3d
000000f0: c630 b6bd 3281 873e e2e2 1bbe ce2e 593e
00000100: b28f 83bc 8a7a 17bd dfa0 293d f67a 7abe
00000110: c9ab 013e 464f 303e 2435 eb3d 80f2 fabb
00000120: d4b7 8b3e cd55 423e 34fc 18bd b5d5 b33d
00000130: b2e0 943d 1a1b 473d 543e 1f3e 4824 083d
00000140: 3dba a7bd acec 293d d2e6 38be 98c8 ee3c
00000150: 93b5 5c3e 52a3 c33d 0244 1a3f ec16 06be
00000160: 8d2b d1bd a229 b03d b4ca 91bd 9e7f 54be
00000170: 09ea ffbc 2bd0 45bd e73c 3abe 4865 b23c
00000180: 5c8f 243e 4bc5 a8bc 10a3 f03c f88d 46be
00000190: c8fa 9c3e a4c8 87be 77bf 593e 9b13 783d
000001a0: a902 98bd 61e1 20be f9a2 25be 54a5 91be
000001b0: f641 15be f796 93be 2424 dc3d 2230 95be
000001c0: e691 a5be ad0a d63d f771 4e3d cc09 113e
000001d0: 35d0 043d e26d 723d 70df ca3c a4d2 b13e
000001e0: 4a6b 193e d56b f3bd 1bc5 08be 8eda ad3d
000001f0: 2559 94be e9b7 e1bc dd14 24bd 544e 5c3c

layers.0.attn_heads.3.key.bias f4 [8]
-0.22078173 0.023265075 -0.21750474 -0.20422253 0.23580408 -0.022534117 0.027358048 0.09580098
00000000: 9b14 62be 6696 be3c 90b9 5ebe b61f 51be
00000010: a076 713e 7899 b8bc fc1d e03c 4e33 c43d

layers.0.attn_heads.3.query.weight f4 [8, 16]
0.11342707 0.2200801 -0.13630493 -0.270572 0.09829815 0.16699558 -0.027653804 0.1663243
0.18805163 -0.3328864 -0.11821943 0.3641482 -0.052239846 0.030706117 -0.045548763 0.28834668
0.039197017 -0.101868555 -0.010660771 0.35957947 0.20445134 0.26189032 -0.19171235 -0.3215053
-0.27257052 0.003950157 0.5918098 -0.27263135 -0.33058515 -0.17811951 0.14343241 0.17781062
-0.15298218 -0.14993301 0.007509621 0.2521131 -0.12219947 0.01922948 -0.1550762 0.061457854
-0.040863656 0.052658774 -0.07231892 0.25950837 0.15193214 0.05382758 0.27198204 0.06071979
0.23766695 0.054408573 -0.11934594 -0.08275785 0.10145152 -0.06049216 0.093220174 -0.27789864
0.013740211 -0.2768868 -0.05806089 -0.067331 -0.018191723 0.14115363 0.13782762 0.327386
0.048751734 -0.26719445 -0.0050825994 0.1753871 0.16300473 0.051241636 0.28556478 -0.11840503
-0.078270875 0.26962218 0.10239526 0.09899526 -0.07918246 -0.025100641 -0.08533588 -0.1739135
-0.18705101 -0.09918981 -0.17641768 -0.010539802 0.34794664 -0.14563222 -0.02006336 0.011411961
0.14695811 0.097447634 -0.3486347 -0.110145874 -0.027614199 -0.19873628 0.03377933 0.25669804
-0.23508587 -0.20731571 0.16837579 0.19152692 0.122201316 0.15664904 0.19994366 -0.14904523
0.276113 -0.13250756 0.011064386 -0.33893645 -0.13990697 -0.2827692 -0.23203017 -0.3880343
0.16937155 0.230594 -0.34374702 -0.03641076 0.28617123 0.10513253 -0.25477114 -0.10514086
0.00062467577 0.10249739 0.0621772 -0.111198775 0.062190015 0.03802099 0.10395099 0.09234958
00000000: 744c e83d ae5c 613e 8593 0bbe 6a88 8abe
00000010: 8a50 c93d e400 2b3e 3b8a e2bc eb50 2a3e
00000020: 9b90 403e 1670 aabe 071d f2bd a271 ba3e
00000030: 73f9 55bd 658b fb3c 5791 3abd 2da2 933e
00000040: 0d8d 203d 76a0 d0bd 84aa 2ebc cd1a b83e
00000050: b15b 513e 7d16 863e 3e50 44be 589c a4be
00000060: 5d8e 8bbe 5270 813b d980 173f 5696 8bbe
00000070: 7542 a9be f664 36be f2df 123e fd13 363e
00000080: 5ca7 1cbe 0a88 19be 4413 f63b f814 813e
00000090: b743 fabd 2487 9d3c 4ccc 1ebe 3bbb 7b3d
000000a0: a660 27bd bab0 573d f11b 94bd 48de 843e
000000b0: 1994 1b3e 4f7a 5c3d 3b41 8b3e 51b5 783d
000000c0: f75e 733e 86db 5e3d a56b f4bd f37c a9bd
000000d0: d1c5 cf3d a1c6 77bd 38ea be3d bb48 8ebe
000000e0: 9f1e 613c 1bc4 8dbe 41d1 6dbd d6e4 89bd
000000f0: cf06 95bc 948a 103e af22 0d3e 239f a73e
00000100: e6af 473d b6cd 88be ef8b a6bb ad98 333e
00000110: b6ea 263e c0e2 513d 8c35 923e 567e f2bd
00000120: 7b4c a0bd eb0b 8a3e 9bb4 d13d 07be ca3d
00000130: 6a2a a2bd dc9f cdbc 94c4 aebd 6116 32be
00000140: 4d8a 3fbe 0724 cbbd d6a6 34be 22af 2cbc
00000150: 1026 b23e 9d20 15be ea5b a4bc 3cf9 3a3c
00000160: 307c 163e a092 c73d 3f80 b2be 2994 e1bd
00000170: 2c37 e2bc 8681 4bbe 325c 0a3d ed6d 833e
00000180: 5aba 70be 924a 54be b46a 2c3e a21f 443e
00000190: af44 fa3d 9b68 203e 08be 4c3e 509f 18be
000001a0: af5e 8d3e 10b0 07be 6647 353c 1489 adbe
000001b0: c643 0fbe 20c7 90be 5199 6dbe 6fac c6be
000001c0: bc6f 2d3e d520 6c3e 9cff afbe 7323 15bd
000001d0: 0985 923e b94f d73d 5d71 82be 1754 d7bd
000001e0: 48c1 233a 27ea d13d 85ad 7e3d 2fbc e3bd
000001f0: f5ba 7e3d e6bb 1b3d 42e4 d43d c721 bd3d

layers.0.attn_heads.3.query.bias f4 [8]
0.16357586 -0.014985011 -0.068217605 0.15906617 0.00878028 -0.2412418 -0.035007898 0.024873365
00000000: 6e80 273e b183 75bc acb5 8bbd 3ee2 223e
00000010: 2adb 0f3c 1708 77be 7164 0fbd 3ac3 cb3c
